cifar10_cnn_model.tflite (tflite, 674340 bytes, 8 tensors)

arith.constant f4 [64]
00000000: 16eb 5e3e 2a33 ccbc 08b7 413e 923a d0bd
00000010: 6755 1cbd 4d81 a33b 27f6 e0bc 544c edbc
00000020: a889 5abd 9774 1d3e 1011 bf3a 5e25 893e
00000030: f2dd 81be 67b5 b2bc 0d2d 143e 4754 9bbc
00000040: af7d 8fbc 75b6 b13d 2e85 9abc 1d12 6dbe
00000050: c4ba 7cbe 198f 07bd 6698 26bd 5175 cdbd
00000060: 1261 30bd 9564 00be d3b9 45be b352 9abd
00000070: bc16 02bd f06d 0ebb 3538 71bc 1281 babc
00000080: 985a 03bd ab00 43bd de74 27bb b081 cfbc
00000090: 1b12 e8bb 0dc5 02bd 4c03 1bbe 741a 883e
000000a0: 488e 29bd 5c00 2bbc e186 a7bc 1844 bd3d
000000b0: 378c ffbc bb79 80bd d80a 13bd fa80 f5bd
000000c0: d26a a0bb a8a5 01be e697 1e3e 801d cfbc
000000d0: 5d84 d7bc a15d 8bbc b305 1dbe 3ab4 d3bb
000000e0: ca85 c03e 81c3 e6bb e4fe 863e 025c 4e3e
000000f0: afbf a9bd cb83 f3bc 6acf 85be 816d 0ebc
0.21769366 -0.02492674 0.18917477 -0.101674214 -0.038167384 0.004989779 -0.027461125 -0.02896706
-0.053353935 0.15376507 0.0014577229 0.2678632 -0.25364643 -0.021815015 0.1447031 -0.018961085
-0.017515985 0.08677379 -0.018862333 -0.23151441 -0.2468062 -0.033095453 -0.040672682 -0.10032142
-0.043061323 -0.12538369 -0.19309168 -0.07535305 -0.031759962 -0.0021733008 -0.014722873 -0.022766624
-0.03206882 -0.04760806 -0.0025551836 -0.025330395 -0.0070822365 -0.031926204 -0.15137976 0.26582682
-0.041395456 -0.010437097 -0.020450057 0.092415035 -0.03119479 -0.06273218 -0.035899013 -0.11987491
-0.0048955465 -0.12660849 0.15487632 -0.025282621 -0.026308233 -0.01701242 -0.15334205 -0.0064606937
0.37602073 -0.007042349 0.2636634 0.20152286 -0.08288514 -0.02972593 -0.26134807 -0.0086931

arith.constant1 f4 [64]
00000000: 03dc 043e 5d9a 803e d911 9fbd 4035 993e
00000010: 38e4 173e d77f a63d 2ae3 42bc 6b01 313e
00000020: 5fc0 c33d 29e6 953d 1b9e 953d e7e9 55bd
00000030: b90a 57be 5c8d 613e f60c dcbc b7f7 f53d
00000040: e461 763e 6b8c 363e 5acd 983e 133d cebc
00000050: d94a f9bc f0d1 0cbe 96b5 ab3d 1bd2 6ebd
00000060: e734 373e 3dc3 24be a048 7f3c b4e6 e3bc
00000070: f12e 1dbe cec9 583e 9755 363e b2d1 eb3d
00000080: 3efb 313b 300c 283d 0646 393d c356 f3bd
00000090: abb9 6e3d d913 123d 83ec 12bb 05dd 93bd
000000a0: 101c aa3b 5d8d 903d 6739 0cbe c568 86bc
000000b0: 83c8 4cbe b29d d23d d0ba 46bd 0214 833e
000000c0: e473 00bd 6e69 eabd 9bdd 3a3e 8063 d9bd
000000d0: 8b00 663e 16bf 023d 1b8e ec3c 73b6 8a3d
000000e0: 13c4 aabd 42be bf3d 0eae 3fbd 8de3 e9bd
000000f0: aa24 eaba 00da 0ebc a929 433d 6800 29bd
0.12974553 0.2511777 -0.07767076 0.2992344 0.14833152 0.08129852 -0.01189498 0.17285697
0.09558176 0.0731929 0.07305547 -0.05222502 -0.21000184 0.2202658 -0.026861649 0.120101385
0.2406078 0.17827003 0.2984417 -0.025175607 -0.030431198 -0.1375196 0.08384244 -0.05830584
0.17891274 -0.16090102 0.01558128 -0.027819969 -0.15349938 0.21170732 0.17806087 0.115146056
0.0027157809 0.041027248 0.045232795 -0.11881783 0.058282536 0.03566346 -0.0022418804 -0.072198905
0.0051913336 0.07058213 -0.13693772 -0.01640738 -0.19998364 0.10283984 -0.048518002 0.25601202
-0.031360522 -0.1144589 0.18248598 -0.10614681 0.22461145 0.031920515 0.028876355 0.06773081
-0.083381794 0.09362461 -0.04679685 -0.11420355 -0.001786371 -0.008718967 0.047647152 -0.041260153

arith.constant2 f4 [10]
00000000: 47dc 3ebe 0143 82be 0c67 babc e162 ba3d
00000010: 70b4 b33e 8986 5ebe 45d3 653e 0bee dfbd
00000020: e3d9 763e 463f 15be
-0.18638717 -0.25441745 -0.022754215 0.09100891 0.350986 -0.21731009 0.22443874 -0.10934075
0.24106555 -0.14574918

arith.constant3 f4 [64, 3, 3, 32]
00000000: 4b0f 84bd 7721 af3d c364 b53d 72dc 7fbd
00000010: 9109 85be 72ce e0bd 4977 47be 57a9 39be
00000020: f982 56be e0ec 0bbe 7959 003e 9faf 37bc
00000030: f9c3 8e3e 797b edbb d071 c4bd eaae 763d
00000040: 4c63 583e 9034 bebe 2a64 4c3e 9772 64be
00000050: aaa4 47bd 6d2f 24be 1a35 203e a4a7 b13a
00000060: c1ec 7ebd 57e9 8ebc b6ed f8bd 3074 833b
00000070: 1d9d 163d 8625 9bbe ca3e 9abe 6749 29bd
00000080: 0856 31bd 5332 4b3c 7a63 873d ba9e 623d
00000090: d30c 2abe d6f4 803d 4eb4 54be 1c4b 2d3d
000000a0: 5d6c 76bc 1f7d b7be 646f 04be 33ca 163d
000000b0: 42e2 283e 7a7a 8f3d 4a1b 30bc 0007 d63d
000000c0: 6583 d03d 68c3 81bd 0be2 803c a4b2 fd3d
000000d0: 5e53 c0bc 9b1e f1bc 3015 393d 2a1b 323e
000000e0: 9ae2 b4bd 654b ed3b 4530 2d3e 5cc4 cc3a
000000f0: a8f9 dabc 46ec a2bd 1bcf 8abe fc70 4bbd
00000100: 3b49 873c 043e f2bd 5af3 0eba a28f bd3c
00000110: 690a 33be 35a2 9ebd 7b99 7dbe 504f 8ebc
00000120: cb37 ffbc 9b27 6bbe bdf9 4abe c236 943d
00000130: 2565 2bbd c8e5 02be f3a7 acbd 28c7 143e
00000140: cb38 033e 7cbb 9bbe 3a18 2dbd 5b8a 74bd
00000150: 68aa 793d 8f10 8fbe 0462 913b 8a7c a03d
00000160: dc51 b1bd c7e6 23bc 2bbd cd3d 968a c53b
00000170: 17b6 febd 5a54 7fbd 3a59 acbe ab55 543d
00000180: 1d50 03bd bab2 703d 47f1 2c3e f5ea 03bb
00000190: fcf8 d6be 868f bf3c 7eb7 a1bc 4ef9 54bd
000001a0: 1590 e8bd 4bc1 413e f855 3a3e 575d 12bd
000001b0: d8c0 0c3e 988f b9bd b3fb 903d f3e4 61bc
000001c0: 6d80 c53e 9f0f c0be 65aa 443e 74cf 8ebb
000001d0: 0d6e c8bd 8c7d b5bd b741 813d eb2f 0f3e
000001e0: ae01 87bd 5ea7 46bd bee1 77bd d424 0fbc
000001f0: 3ce7 1d3d c304 9bbd d1ba fcbe 183c 6abd
00000200: 1ab8 38be bbb8 2dbe 70d5 b43d 1f5e 963b
00000210: d709 58be 8136 bcbc d85f 8abe 2d88 1b3d
00000220: e4d0 803c 7044 d5be 45fb 6cbd 6cef b6bc
00000230: 85aa cf3d 6e8a 5fbe 38d3 83bd ee2a 3e3d
00000240: 8c55 8c3e 7911 debd 2e49 a6bd ecb2 213d
00000250: 7a8c d6ba a24f 923d e63d 903d 2e8b e03d
00000260: a99f e93c 265f ac3c 80f2 113e a1b9 d53d
00000270: 1260 643c 41b1 8abd 9f23 95be dcca 82bd
00000280: d519 d0bb 7306 d3bc 041d f2bb 2f07 41bd
00000290: 25fc 55be ac93 973d 3786 b0bd 915a 3cbe
000002a0: 3316 8d3d 9f2e b1be c8a9 cb3d 50cf df3d
000002b0: 0b87 063d 1ee7 26bd 07f4 373d 0d95 5e3d
000002c0: 4d3f 2d3e 37fc dcbe 7fc9 bb3d cac1 dd3c
000002d0: b937 5fbc 2e36 ddbd 2cd1 f6bc 476d f1bc
000002e0: 8f2c f0bc e57a 38bd a74d 323d be4a 19bd
000002f0: 2528 0bbe 4b51 64bd b97a a9be bd39 d73c
00000300: 4d7c 9abd ba57 97bd b5df 663e 4178 463d
00000310: 20a8 3ebe 9ec3 79bd 0530 023e ea4c 0abe
00000320: d341 97be bdd6 123d 36d4 ac3e 4bfb 81bd
00000330: 5240 a03e 50e4 00be 58e7 9fbd c977 54be
00000340: aa10 fb3e 5875 c1be 0b65 7f3e dc44 f9bc
00000350: 21e9 00be d8db 95bc 3706 68bd 381c 673c
00000360: 47f3 a6bd 4306 713c 02af f23c 5593 1b3c
00000370: 1e22 5c3e a4f0 cebd f480 41be 5998 2bbe
00000380: a18f b83c a033 643d aba0 fc3d 2159 733b
00000390: 7228 8bbd 168a 753d d96e 573d e5a4 95bd
000003a0: c1a9 1a3d 5100 bfbd a829 85bd c06f 1ebd
000003b0: e6b0 553d bc0a f6bb 5b1c 6cbd b57b 363d
000003c0: 1616 443e be10 afbe 5083 06bc 85f2 263e
000003d0: 824b 0c3e 597d 1d3d ba22 9abd af86 2e3e
000003e0: d8d6 143d 9b46 433d e95d 4f3d ce7f aebc
000003f0: 5b68 023d 26fd 083d 1d7a 9bbe 176b 84bd
-0.064482294 0.08551305 0.088571094 -0.062466092 -0.2598386 -0.10976876 -0.19479097 -0.18131004
-0.209484 -0.1366458 0.12534131 -0.011211305 0.2788389 -0.007247385 -0.095920205 0.060225405
0.21131629 -0.37149477 0.19960085 -0.22309338 -0.04874102 -0.16033716 0.15645257 0.0013553989
-0.062237505 -0.01744525 -0.12154715 0.0040116534 0.03677093 -0.30302066 -0.3012603 -0.041329768
-0.043294936 0.012402135 0.066107705 0.055327155 -0.16606455 0.06296699 -0.20771906 0.042307958
-0.015040484 -0.35837647 -0.12933117 0.036813926 0.1649256 0.070057824 -0.010748694 0.10450554
0.101813115 -0.06336099 0.015732786 0.123875886 -0.023477253 -0.02943354 0.04518622 0.17393175
-0.08832283 0.0072416537 0.16912945 0.0015622484 -0.026730374 -0.07955222 -0.27111134 -0.049668297
0.016514411 -0.11828235 -0.00054531323 0.023139779 -0.1748444 -0.07745782 -0.2476558 -0.017371804
-0.031154534 -0.22964327 -0.1982183 0.07237007 -0.041844506 -0.12782967 -0.08430471 0.14529097
0.12814634 -0.30416477 -0.042259432 -0.05970226 0.060953528 -0.2794232 0.004436733 0.07836254
-0.086581916 -0.010003752 0.100458466 0.0060284836 -0.12437075 -0.062336303 -0.33661824 0.05183951
-0.032058824 0.058764197 0.16888915 -0.002012906 -0.41986835 0.023383867 -0.019740816 -0.051995568
-0.113556065 0.18921392 0.18196857 -0.035733547 0.13745439 -0.090605915 0.07079258 -0.013787496
0.38574544 -0.37511918 0.19205625 -0.0043582264 -0.097866155 -0.08861837 0.06311362 0.13983123
-0.06592117 -0.048499458 -0.06051802 -0.008736808 0.0385506 -0.075692676 -0.4936128 -0.057186216
-0.18038979 -0.16965 0.088297725 0.004588857 -0.21097504 -0.022975208 -0.27026248 0.037971664
0.015724607 -0.41653776 -0.057856817 -0.022330962 0.10139946 -0.2183015 -0.06436771 0.04642766
0.27409017 -0.108431764 -0.08119427 0.039477274 -0.001636877 0.07144095 0.07043056 0.109640464
0.028518515 0.021041464 0.14252663 0.104357965 0.013938921 -0.0677209 -0.2912874 -0.063863486
-0.0063507357 -0.025759911 -0.007388713 -0.04712599 -0.20896967 0.07401213 -0.086193494 -0.18393923
0.06889 -0.34605882 0.099444926 0.109282136 0.03284363 -0.040747754 0.044910457 0.054341365
0.16918679 -0.43161175 0.09169292 0.027069945 -0.013624125 -0.108013496 -0.030129038 -0.029471053
-0.029318122 -0.045039076 0.043531086 -0.037424795 -0.13589533 -0.05574159 -0.33101442 0.026272649
-0.0754324 -0.073897794 0.22546275 0.048454527 -0.18618822 -0.06097757 0.1271363 -0.13505903
-0.29542407 0.03584932 0.33755654 -0.063467585 0.31299073 -0.12587094 -0.07807797 -0.2074882
0.4903615 -0.3778484 0.24940889 -0.030428343 -0.12588932 -0.018293306 -0.056646552 0.014105849
-0.0815187 0.014710966 0.029624466 0.009495576 0.2149739 -0.10104492 -0.18896848 -0.16757335
0.022529425 0.055713296 0.123353325 0.0037131982 -0.06794824 0.059946142 0.052595947 -0.07306842
0.037759546 -0.09326232 -0.06502086 -0.03868079 0.052170657 -0.007508604 -0.05764423 0.04455157
0.1914905 -0.3419246 -0.008210018 0.16303451 0.13700679 0.03844962 -0.07526155 0.17043565
0.036337703 0.047674756 0.05062667 -0.021301176 0.031837802 0.033444546 -0.30366603 -0.06465738

arith.constant4 f4 [10, 64]
00000000: 4931 f33d 7abc 95bd a48a a0be a56d bcbd
00000010: 689d ac3e 3ad7 04bf 8d27 453e af00 1cbd
00000020: efd9 11bf 8baa 833e bea1 ef3e 8b7b a8be
00000030: 45be d73d 8442 14be 7ffa 52be df60 09be
00000040: 826c 7bbe 7456 1f3e 221f 55be 368a 173e
00000050: 2648 373e 69de bf3d c2da 0a3e 6b22 363d
00000060: beff 2a3e 2305 a8be cc1d 5f3e eba6 ba3e
00000070: 7513 89be 6d77 b2be 43a8 263d 4f70 c1bd
00000080: 6f6b 84be 48ba 0a3e f7cf 66be f36e 5b3e
00000090: 2614 babd 7a7b c9bd cfb6 143f 93eb e53d
000000a0: 8179 1c3e 6745 3ebe 72a0 b83d e217 d43d
000000b0: 3d67 42be 03ce 973d ab8b 74be 2870 2b3e
000000c0: ccd7 213e c52d d8be aa67 1d3e 584f 013e
000000d0: 1eb6 1d3e 0413 883e 7380 083d 03c8 743d
000000e0: 0cc1 a5be 3193 853e b95e 51be 18c0 7d3e
000000f0: 14d3 d33e a5f0 fe3d 48f1 75be 9f67 63be
00000100: 727e bf3d 4b3c 53bc 05bc a9be 6235 983e
00000110: acf8 763e f475 31bd 24a6 a23c 3a5a 003d
00000120: 123b 64be a2fe f9be 1cbb 853e ea28 f63d
00000130: 89f0 15bd 4253 4abd 2da5 163e 9f66 e53d
00000140: f457 87be c81a a4be 3b3a b0bd f17e b03e
00000150: 5cfe 12be 1c4e 8bbe eb69 803e 34b1 8b3d
00000160: edd2 503e 9a4a c23d 20a2 873e eb47 4fbe
00000170: 40fc 70bd be7e 5ebd 992d 41be 945f 5cbd
00000180: 387f 2b3e 2816 973e 2bd5 f53e 7df3 313e
00000190: 7ab2 73be 5310 403e ce58 03bf 2f72 a6be
000001a0: d877 c53d 4714 2dbd 1b93 393d a845 f1bd
000001b0: 1cce 66be ebef 153f b258 f7bc 922c 903e
000001c0: 9f69 02be 59ea f13e b8f4 e73d bc23 823d
000001d0: 5da9 8d3e 6c7e 903e 1695 6fbe 6dab 98bd
000001e0: a182 10bf 31eb 28bd d135 3bbe 3abe 923d
000001f0: 83df c3be db31 0f3e e783 9f3e e0aa 2c3e
00000200: dd20 363e 403e 5f3e 29c8 57be abeb 8c3e
00000210: 2832 c6be 74ef b0be 735d bebd 3459 aabd
00000220: 831b ec3d 1ac5 183d c184 cb3d 3e4c f0bc
00000230: 2fd1 b3bd 7d53 643e 1e4a 0cbc 4615 a1bd
00000240: e952 93bd d4ad 053f 1a69 93bd 1623 1abd
00000250: 4c6d 9b3e ff30 053e 4243 6abd 8cd5 8c3e
00000260: 1158 7cbe 32ff 863e 2428 aebe aae6 fa3d
00000270: fe1a de3d 4043 3e3e 02e4 263e 14ed 0a3e
00000280: 6bc2 4d3e fdc4 a53a 35bb b7bd 1c96 723e
00000290: 48f5 87be c85d 913d 909c 513e ca12 913e
000002a0: b664 383e d628 81bd a116 85bc 2f04 a8be
000002b0: 2eba 4ebe 566a a03e 9869 793e a61f ddbe
000002c0: 2935 5e3e 961d a5be 4fcb 56bd dd1a 9fbd
000002d0: 1237 92be 06dc bb38 7a65 e73e ec6e 8abe
000002e0: 3b42 e8bc e972 f2bc b2a3 893e 7c97 f8be
000002f0: c91a adbe 7d39 c23d 75d5 a2bc a20c 0abe
00000300: ca4f 883d 7072 91be 995d 61be 32cf c9be
00000310: 3128 d8be ea86 d1bd 8fb2 2ebe 158b 3a3b
00000320: 5edc 9a3e c7eb a53d 98e2 54bd 361f 8d3e
00000330: e480 433e 4fc2 2c3d a30d a13e dba5 10be
00000340: 5fcd 093d 788a 9bbe 3d3b 413e 23e8 afbe
00000350: 99fe 2bbe 6af6 05be 01cf f03c ca62 f93c
00000360: 72fd 013e 808f 023e ea72 703e 2d07 cc3e
00000370: 212f d53e cb9a dabe 17f3 1fbe e3f5 65be
00000380: 7b6e 95be fc58 4bbe a824 c2be 63b7 96bd
00000390: c292 88be 504a 643e b2f7 03be 6162 e5bd
000003a0: c66d 7f3e a5c3 93be 294d 05bc 6d8b 3f3e
000003b0: d4d0 6bbd 0da3 e5be 7e31 40be fcb0 883e
000003c0: c8bb a0bd d03d 7ebe eff7 93be 9bb6 873e
000003d0: ece9 b5be 5e75 aabd 85ff 2a3e 347c 67bd
000003e0: c6ff cbbd f0b4 2d3e 4d28 48bc d711 1bbe
000003f0: 87a5 223d fad5 aabd 715c ddbd bb5d 463d
0.11874635 -0.0731134 -0.31355774 -0.092006005 0.3371384 -0.5189091 0.19253369 -0.03808659
-0.56973165 0.2571605 0.46803087 -0.32906756 0.10534338 -0.14478499 -0.20603369 -0.1341586
-0.24553111 0.15560323 -0.20812657 0.14798817 0.17898616 0.09368593 0.13560012 0.044466417
0.1669912 -0.3281642 0.2178871 0.36455473 -0.26772657 -0.3485674 0.04068781 -0.09445249
-0.25863215 0.13547623 -0.2254027 0.21429043 -0.09085874 -0.098380044 0.58091444 0.11226573
0.15280725 -0.18581162 0.090149775 0.10356118 -0.18984695 0.074123405 -0.23881404 0.16742003
0.15804976 -0.4222242 0.15371576 0.12627923 0.15401503 0.26577008 0.033325624 0.05976106
-0.32373846 0.2608886 -0.2044629 0.24780309 0.41371977 0.12448243 -0.24017823 -0.22207497
0.093502894 -0.012892793 -0.3315126 0.29728228 0.24118298 -0.04332538 0.019854613 0.031336047
-0.22288159 -0.48827082 0.26119316 0.120195225 -0.036606345 -0.049395807 0.14711447 0.11201214
-0.2643429 -0.32051682 -0.086048566 0.3447185 -0.14354843 -0.2720803 0.2508081 0.06820908
0.20392962 0.09486885 0.2649088 -0.20242278 -0.058834314 -0.05432009 -0.1886505 -0.053802088
0.16747749 0.2950909 0.48014197 0.1737804 -0.23798552 0.18756227 -0.5130738 -0.3250899
0.09641999 -0.042255666 0.045306306 -0.11780864 -0.22539562 0.5856921 -0.03019366 0.28159004
-0.12735604 0.47249106 0.11325973 0.06354472 0.27668276 0.28221452 -0.23396716 -0.07454572
-0.56449324 -0.04123992 -0.18282248 0.07165189 -0.38256463 0.13983862 0.3115532 0.16862059
0.17785974 0.2180109 -0.21072449 0.2752355 -0.3871014 -0.34557688 -0.09295168 -0.083177954
0.11528685 0.037297346 0.0993743 -0.02933323 -0.08780133 0.22297473 -0.008562593 -0.07865386
-0.07193548 0.52218366 -0.07197781 -0.037631117 0.30356824 0.13006972 -0.05719305 0.27506673
-0.2464297 0.26366574 -0.34015 0.12251027 0.10844992 0.18580341 0.16297916 0.13567
0.20093696 0.0012647208 -0.08971254 0.23690075 -0.26554322 0.070979655 0.2046988 0.28334647
0.18007168 -0.06306617 -0.016246142 -0.32815692 -0.2018821 0.31331128 0.24356687 -0.43188208
0.21699966 -0.32249135 -0.052439984 -0.07768796 -0.2855764 8.9578374e-05 0.45194608 -0.27037752
-0.028351894 -0.029595809 0.26882702 -0.48553073 -0.33809498 0.09483621 -0.019877175 -0.13481382
0.066558436 -0.2840762 -0.22008361 -0.3941589 -0.42218164 -0.10230811 -0.17060302 0.0028464247
0.30246252 0.081016116 -0.05197391 0.27562875 0.19092137 0.042177495 0.31455716 -0.14125769
0.033643123 -0.3037908 0.18870254 -0.34356794 -0.1679634 -0.13082281 0.029395582 0.030442614
0.12694338 0.12750053 0.23481336 0.39849225 0.4163752 -0.42696223 -0.15620075 -0.2245708
-0.29185852 -0.19858164 -0.37918591 -0.07359197 -0.26674467 0.22293973 -0.12887457 -0.11200405
0.24944219 -0.28860202 -0.008136072 0.1870553 -0.0575722 -0.4485096 -0.1876888 0.26697528
-0.078483164 -0.24828267 -0.28900096 0.26506504 -0.3553003 -0.08323167 0.16699035 -0.056514934
-0.09960894 0.16963553 -0.01221664 -0.15143524 0.03970864 -0.08341594 -0.108086474 0.048429232

arith.constant5 f4 [64, 2304]
00000000: 5f4d e1bd 3f35 b43c 3783 eebd 18cd 123e
00000010: ab37 503e 16ba 003e c1e9 fb3b 1e76 033e
00000020: 5252 943b 8ba6 59be ec12 a23d 01cb 433e
00000030: 6ce7 ee3d 3dab da3d 2db7 98bd c01c 0f3d
00000040: b915 b43b b14e 8fbd 61ae 3a3e 05b5 17bd
00000050: e58a 893d c211 9e3d c163 87bc a60b 39bd
00000060: 1b34 a73b ab86 4abd 63bf 8ebd 5551 dd3d
00000070: f7c0 1bbd f9d9 aa3e 0177 523e d576 e9bc
00000080: 9002 d4bc 0d04 61bc b284 d6bd cf9b a83d
00000090: ced4 d83c 5431 b93d 0f5e af3b 21dc 9dbc
000000a0: f2db 753e b4ee 0d3e 3f9c 77bd f86e 813d
000000b0: ebed e4bd cc83 523d 3191 09ba 8820 3d3e
000000c0: 8541 bf3d b096 973d b0c0 b73e 4e36 93bc
000000d0: 59d2 9dbd 5495 a13d 2aa7 e53d 7ab4 d33c
000000e0: c070 943d 1791 203e cdfd 063e 93c8 3abd
000000f0: da65 c83d ba29 f9bd addf 78be 43e6 acbc
00000100: d5d0 7f3d 0cb8 db3c 1450 c43d ba1b 503e
00000110: 8f2d c0bc 29bc 903e d094 c93e 09eb 813e
00000120: c0a8 183b e360 1cbe e790 c73d 0ef3 03be
00000130: 4317 1dbd 6db6 253d 640c 653c ea4d a43d
00000140: 67cb 173e 8e84 c63d ab64 5e3d 089f 03bc
00000150: f29a 2bbd 7edb 073d 215e 033d ea87 7a3c
00000160: 6895 c13b 3766 94bd d000 8c3b 5db5 bdba
00000170: 954c cdbd f69d 2a3e 2834 8c3e eec2 453d
00000180: 4666 223e 8034 053e 0b44 543d 3dd6 dd3c
00000190: 1d12 143e bae6 513d 1238 9cbc fd6a 163d
000001a0: 9889 5fbd 4e65 e73d ca9f 23be e9c3 453e
000001b0: c6e5 0abd 569a e73d 02ca 3b3c 463b cc3d
000001c0: 1e90 d83d f19d 003e 7fad 473e bece 3e3c
000001d0: 4c4c 0b3d f91c 0d3e 4a2f 913c 6184 b4bd
000001e0: ef5b 1f3e d3e7 aa3d b7d4 483e 780d 673d
000001f0: ae65 06be 049b 2cbd ccb4 daba 5016 193d
00000200: 91be 393e 8010 69bd 4a29 aebd 8ead 0dbd
00000210: 18bf b6bd 7872 8fbc 0fba 0fbe 5d0a 5b3e
00000220: 2149 b3bd 09de 1f3d 551c c53d a0e1 243d
00000230: 71f7 b33d 3011 f6bc 3e7c 69bc c51d e4bd
00000240: 92a5 4d3d c7e7 2ebb 456d 8cbd 979b 193d
00000250: 7335 2dbe df96 edbc ac2c e93d c2bb 90bb
00000260: 6449 c33d c612 e9bd 92ac 963d ae30 0f3e
00000270: 29f6 02be 0bbd 923d 918e be3d 32d2 1f3e
00000280: ba80 0c3e 411d 533d 49d0 40bc ea35 05be
00000290: 8eab e83d 72ed 4f3c c73f 52bd 1498 be3d
000002a0: 58cb ea3d 6d25 42bc 9d04 12be 3ad2 dd3c
000002b0: 5db7 babc a076 943d 58d7 d83b d00d 6bbd
000002c0: f8a4 423e fea7 043e 1367 c0bb 6c91 2ebd
000002d0: bebd 3f3d ccd9 9d3a 21e3 ed3d 4e1a db3d
000002e0: f76a 04bd 7d89 8bbd a7c0 4fbd 3d39 54be
000002f0: 11b2 5a3d 516b e23d 6056 6dbe 8caa 0f3d
00000300: e8e3 343e d769 bfbd 84c2 b0be e384 433c
00000310: 3815 183d 36a6 203e 624b d13d 2924 1e3e
00000320: 2320 05be a73a 013e ff89 1dbd f3ba ddbd
00000330: e04b 46bd 72d7 c9bc 137f c33d 2296 05be
00000340: 81c3 583d ce52 a03d 5a90 e33d 6b22 f1bc
00000350: 1f34 e3bd d2f7 6c3d c322 50be 87ef 743d
00000360: cfee 3f3e a4df 48be 3db9 523d 0744 bb3d
00000370: 231b acbd 08ee 9d3c c6f9 803d 01f0 d63d
00000380: 4d1d 933d b1fd 09be 0e9b 933e 1d85 debc
00000390: 800c edbd a489 ab3d 3ff3 8ebd 7e4c 3b3d
000003a0: 2114 843e 2bd8 f63d 2746 cebd 2054 31bc
000003b0: 30a7 dfbd 6c28 763e 948c c83c 580e 6bbd
000003c0: 50ca 573d c995 933d e065 81be fc73 37bd
000003d0: 7051 933c 4a24 31be a471 fd3c f499 edbd
000003e0: fafd 2ebd bd56 ac3c 01cd 29bd e7fe fdbc
000003f0: bd05 833d ff02 413e c327 4abe b42a 86bb
-0.110010855 0.021998046 -0.11646121 0.1433605 0.20333736 0.12570986 0.0076877777 0.12838027
0.004526415 -0.21254937 0.07913765 0.19120409 0.11665234 0.10677192 -0.07456813 0.034939528
0.0054957536 -0.06997431 0.18230583 -0.037037868 0.06715945 0.07718231 -0.016527059 -0.045177124
0.005102647 -0.049444836 -0.06970098 0.108065285 -0.038025822 0.33369425 0.20553209 -0.028499046
-0.025880128 -0.013733876 -0.10474528 0.08232843 0.02646866 0.09042612 0.005351789 -0.019270005
0.24009684 0.1386059 -0.060451742 0.06319994 -0.11178192 0.051395223 -0.00052477705 0.18469441
0.09338669 0.07401788 0.35889196 -0.01797023 -0.07706136 0.0788981 0.11213525 0.025842894
0.07248068 0.15680347 0.13182755 -0.04560144 0.09785052 -0.12166162 -0.24304076 -0.021105891
0.062455017 0.026821159 0.09585586 0.20323077 -0.023459224 0.28268555 0.39371347 0.2537463
0.0023293942 -0.15271334 0.09744435 -0.12885687 -0.038352262 0.040457178 0.013980005 0.080226734
0.14823686 0.096932516 0.054295223 -0.0080335215 -0.041895814 0.03316831 0.03207219 0.0152911935
0.005907703 -0.072460584 0.004272558 -0.0014473606 -0.100243725 0.1666182 0.27383542 0.048281603
0.15859327 0.13008308 0.051822703 0.027079696 0.14460035 0.05124543 -0.019069705 0.036723126
-0.05457458 0.11298619 -0.15978923 0.19313015 -0.033910535 0.11308734 0.011461737 0.09972243
0.10574363 0.1256025 0.19499777 0.011645971 0.03400831 0.13780583 0.017722744 -0.08814312
0.15562414 0.08344998 0.19612394 0.05640933 -0.13124725 -0.042140022 -0.0016685962 0.037374794
0.18139102 -0.0569005 -0.08503969 -0.034589343 -0.08923167 -0.017510638 -0.1403582 0.21390672
-0.087541826 0.03903011 0.096245445 0.040254235 0.0878743 -0.030037493 -0.014250813 -0.111384906
0.05020673 -0.0026688443 -0.06856779 0.037501898 -0.1691492 -0.029002605 0.113854736 -0.0044169137
0.095354825 -0.11380534 0.07357134 0.13983414 -0.12789215 0.07164963 0.09304536 0.15607527
0.1372098 0.05154157 -0.011768409 -0.13008848 0.113608465 0.012690889 -0.051330354 0.0930635
0.11464566 -0.011849743 -0.14259572 0.027077783 -0.022792513 0.072491884 0.006617468 -0.05738622
0.19008243 0.12954709 -0.0058716624 -0.042619154 0.04681181 0.0012043058 0.11615587 0.106983766
-0.032328572 -0.06813333 -0.050720837 -0.2072496 0.053392474 0.11055625 -0.2317748 0.035074756
0.17665064 -0.09346359 -0.34523404 0.011933538 0.03712961 0.15688404 0.10219456 0.15443482
-0.1300054 0.1262003 -0.03846168 -0.10826673 -0.048412204 -0.024638865 0.09545722 -0.13045552
0.052920822 0.07828294 0.11111517 -0.029435357 -0.11093926 0.057853527 -0.2032576 0.059798744
0.18743442 -0.19616562 0.05144619 0.091438346 -0.084036134 0.019278541 0.062976405 0.10494996
0.07183323 -0.13475682 0.28829235 -0.027163083 -0.1157465 0.08375862 -0.06979989 0.045727246
0.25796607 0.120529495 -0.10071974 -0.01082328 -0.1092056 0.24038857 0.024481095 -0.057386726
0.052683175 0.072063036 -0.25273037 -0.044788346 0.017983168 -0.17299 0.030937977 -0.1160163
-0.04272268 0.021037454 -0.041455273 -0.031005336 0.06397579 0.18848799 -0.1974173 -0.004094446

sequential_1/conv2d_1/convolution f4 [32, 3, 3, 3]
00000000: 5537 e7bd 1a08 3cbc 4106 03be 9ee2 94be
00000010: f505 77be 7328 9dbe d92b 163d 6469 0d3e
00000020: fdb2 dabc 69ce 4a3d 08d8 c33c 4f3d aa3d
00000030: 1a9c 05be ca92 cb3b ecb0 0e3d 1e25 e9ba
00000040: 6a00 d9bd c4d2 9bbd 9ebd 6c3e caeb af3d
00000050: 8b0e 353e 11c4 793e 6f12 7d3e 4cc0 113e
00000060: 4491 e4bc 0a50 1ebe add1 9c3c 73e5 c2bd
00000070: a1e4 eabd 2980 3dbd cf47 6abe 80e8 2ebe
00000080: 7ef6 43be 0a21 2ebe 4468 febd 54e6 1b3c
00000090: cd12 abbd cd93 a7bc 3c6c fc3b 3fbe 403c
000000a0: 2456 fdbd ffd8 533d 65cd eebd 8b0c 30be
000000b0: 2409 febd bc12 883e 9ca9 bb3d 94b7 97bc
000000c0: adba 573e 4cb7 883e 7dcb 2f3d a85b a23e
000000d0: b4fc 813e faa8 293e e528 9abd 28e2 3abe
000000e0: 7635 cabd c72e 19be 9e77 13bd cf43 b3bd
000000f0: 4300 433d 5c27 773e f2a6 3b3e 90f8 1f3c
00000100: 71e5 17bd 26e0 38bd 554c cfbc a716 b2bd
00000110: 553e f5bd 1892 3f3e cbd3 5d3d 3327 9e3d
00000120: 45e2 27be 8de6 4dbe d202 53be 867e dc3d
00000130: be10 e2bd 44e3 b5bc 4a2c 3c3e f47b 3b3e
00000140: d5d0 1f3e a7b5 f63d 4abe 47bd e721 06be
00000150: 2259 a53d a08a 703d 2a68 fbbd fe36 1a3e
00000160: 0f0f a13d 4f58 693d e273 083d 6035 4cbe
00000170: 9635 acbd 6770 7a3e c0e1 39be 8532 d1bd
00000180: a1cd 983e c347 ffbd 2c01 35bc af25 643d
00000190: 4bf6 e8bc 9c8a 51be 4ab0 9f3e e2c9 f3bd
000001a0: bb13 56be de02 9d3e 9dbd 753d 83d3 3dbe
000001b0: ea67 153e 007a 1ebd 7c0a c03d c8fe 383e
000001c0: 7aae ffbb f487 fdbc 617c 013e b1dd c73d
000001d0: e3d2 1f3c f08b d4bd ea0b 2cbe af44 fe3d
000001e0: e257 c03c b578 2f3e 838e dc3d 3380 1a3e
000001f0: a061 4a3e 73b4 913e bbc6 53bd 8740 bbbe
00000200: 1c0b 7abe 30f5 56be 7071 51be 0dc5 f1bd
00000210: f52b 06be e598 3ebe 8a96 6cbc 2737 8ebd
00000220: 40ae 9a3d 4d15 e83d 4897 bc3d 4ea1 a43d
00000230: 17fb 903d f897 29bd c7c3 b5bd 8f6c 193c
00000240: aa24 d3bc b655 c93d 88da b03d f109 223c
00000250: 822f 4b3b a578 c93d 3711 523d af6c 8dbc
00000260: 765f 0bbd f98a a1bd 935d 633c 671e 973d
00000270: 5edb 4abc b764 c73d 550a d2bc b2aa 413c
00000280: ce07 cc3c a0ce cf3c 381e ac3d 2b7e 193e
00000290: 782d f43d 3371 bd3d d182 6a3e 3cbc b33d
000002a0: b936 373d a12b a9bd e77c d33c ecf6 073e
000002b0: d520 a43d a1f6 483e 7b42 c4bd db4d f23d
000002c0: 5ad9 173e 927f 4b3c 9f97 90bd d867 77bd
000002d0: 97c4 80be c7fe 9dbe b15e 96be 761c 06be
000002e0: f634 0ebe b55c 4bbe b9df 143e e4ff 28be
000002f0: b91c 3cbc b6df 5d3d bc19 f3bc f279 46bd
00000300: 5cce 4e3e 4a2c a5bd 332c ba3d 3fae bcbd
00000310: 32b4 afbd 3503 803d 53a8 973e c724 cabd
00000320: c8c5 df3d 6d46 303e 8c02 e03d 8b19 aa3d
00000330: 53ae aebd f732 adbe b20a 17bc bb1d 2d3e
00000340: 14ad 18bd 130b 203e 8a4f 93bd 204d a0bd
00000350: 24e0 d23d dd7e 71be 138a b5be 431e 25be
00000360: 8298 b63c 8b83 c93d 0901 313d 5612 5fbd
00000370: f472 61be 124d 31be ec6c b2bd c5ba 46bc
00000380: b829 b0bd bc39 683e da01 173e cf0b 893e
00000390: ab24 7e3c 22cb 25be fd55 3abe 7d4d dbbc
000003a0: b172 c4be 262e 46be 9f07 173e 81c7 353e
000003b0: ccf3 083e 27b4 843e 7994 453e b092 133e
000003c0: c985 a9bd 9e06 9ebd 1bd2 debd 2547 1e3e
000003d0: 599d 223e c410 823e bda1 a83d ae7f da3d
000003e0: 5f47 0c3e d11d 543e c30e 523e fab2 d73d
000003f0: 22d9 443d 9f1e 3c3e f2a3 643d 29c3 c3bd
-0.112898506 -0.011476541 -0.12795354 -0.29079145 -0.24123366 -0.30694923 0.03666291 0.13809735
-0.026696676 0.049513254 0.023906723 0.08312475 -0.1304783 0.006212567 0.034836695 -0.0017787551
-0.10595782 -0.0760856 0.23119208 0.08589895 0.17681329 0.243912 0.24714063 0.14233512
-0.0279013 -0.1546022 0.01914295 -0.0951642 -0.11469389 -0.0462648 -0.22878955 -0.17080879
-0.19136998 -0.17004791 -0.12422231 0.009515364 -0.08353195 -0.02045622 0.007703332 0.011764108
-0.12369946 0.051720615 -0.1166027 -0.17192285 -0.12404087 0.26576793 0.0916321 -0.018520154
0.21067305 0.26702344 0.04291867 0.31710553 0.2538811 0.16568366 -0.07527331 -0.18250334
-0.09873478 -0.1495925 -0.036002748 -0.08753168 0.04760767 0.24136108 0.18325403 0.009763852
-0.037084047 -0.04513564 -0.025304953 -0.08695727 -0.119747795 0.18708074 0.05415706 0.077223204
-0.16394909 -0.2010748 -0.20606545 0.1076632 -0.110383496 -0.022203095 0.1837627 0.18309003
0.15607007 0.12046366 -0.04876546 -0.1309887 0.08073641 0.058725953 -0.12275727 0.1506004
0.078642 0.056968983 0.03331364 -0.19942236 -0.08408658 0.2445694 -0.18152523 -0.10214714
0.29844382 -0.12464859 -0.011047643 0.0557 -0.028437754 -0.20463032 0.31189185 -0.119037405
-0.20905964 0.3066625 0.059995282 -0.18537717 0.14590421 -0.038690567 0.09377 0.18065941
-0.0078027816 -0.030948617 0.12645103 0.09759081 0.009754869 -0.103782535 -0.1680142 0.12415444
0.023479406 0.1713589 0.107693695 0.15087967 0.19763803 0.28457984 -0.051703196 -0.36572668
-0.244183 -0.20991969 -0.20453429 -0.118051626 -0.13102706 -0.18613012 -0.014440188 -0.06944113
0.07552767 0.11332188 0.09208542 0.08038579 0.070791416 -0.041404694 -0.08875232 0.009364261
-0.025774319 0.09830801 0.086354315 0.0098900655 0.0031003659 0.09837464 0.05128595 -0.017263738
-0.034026586 -0.07887835 0.01387729 0.07378846 -0.012381403 0.09736007 -0.025639692 0.011820482
0.024906065 0.025367081 0.08404201 0.14989536 0.11922735 0.09250107 0.22901465 0.08776137
0.044729922 -0.08260275 0.025816394 0.13277787 0.08014075 0.19625331 -0.09582993 0.11831256
0.14829007 0.012420552 -0.070601694 -0.060401767 -0.25149986 -0.30858442 -0.2936912 -0.13096794
-0.1388739 -0.19859584 0.14538468 -0.16503865 -0.011481457 0.054168426 -0.029675357 -0.04845614
0.20195907 -0.08065088 0.090904616 -0.09212922 -0.085792914 0.06250612 0.2962061 -0.09870296
0.10926396 0.17214365 0.10937986 0.08305653 -0.085293435 -0.33827946 -0.009218859 0.16905873
-0.037274435 0.15629224 -0.07192905 -0.078272104 0.10296658 -0.23583551 -0.35456905 -0.16124825
0.022289518 0.09839543 0.043213878 -0.054460846 -0.22016507 -0.17314556 -0.087121814 -0.01212949
-0.08601707 0.22678274 0.147468 0.26766822 0.015511672 -0.1619077 -0.18196864 -0.026770348
-0.38368753 -0.19353542 0.14749001 0.17751886 0.13374251 0.25918695 0.19294919 0.14411426
-0.082774706 -0.07716106 -0.10879918 0.15456827 0.15880336 0.25403416 0.08233974 0.10668884
0.13699101 0.20714499 0.20513444 0.10532184 0.048058636 0.18371056 0.055820413 -0.09558708

sequential_1/conv2d_1/Relu;sequential_1/conv2d_1/BiasAdd;sequential_1/conv2d_1/convolution; f4 [32]
00000000: b696 dd3c cb46 093c 1a38 653d f186 75bd
00000010: 6703 84bc 583d 0ebe 4a31 04bd 9901 8c3d
00000020: b2fe 81bd c1e5 5dbd 0562 81bc 846c 50be
00000030: 00d1 963d c966 673c a299 1bbd 0101 493e
00000040: f135 c3bb e077 46be 73ba d33c c1f6 133d
00000050: 647a b73d b276 9e3d 1725 a13c f73c daba
00000060: bf1f 9ebe 411e 0e3d 65e3 febd 743a 19bc
00000070: 2e04 68bc ef30 993d a174 a13d 5881 7b3d
0.027049404 0.008378695 0.055961706 -0.059943143 -0.016114904 -0.13890588 -0.03227357 0.06836242
-0.063474074 -0.05417419 -0.01579381 -0.20353895 0.07364082 0.014123627 -0.037988313 0.19629289
-0.005957358 -0.19381666 0.025845742 0.036123995 0.08958891 0.07737483 0.019671006 -0.0016650249
-0.30883595 0.03469682 -0.12445716 -0.009352315 -0.014161153 0.074800365 0.07883573 0.06140265
